…
    "It's time to check your model's parameters with the `.summary()` method. This will display the types of layers you have, the shape of the outputs, and how many parameters are in each layer. "
   ]
  },
  {
   "cell_type": "code",
   "execution_count": 50,
   "metadata": {},
   "outputs": [
    {
     "name": "stdout",
     "output_type": "stream",
     "text": [
      "Model: \"sequential_15\"\n",
      "_________________________________________________________________\n",
      "Layer (type)                 Output Shape              Param #   \n",
      "=================================================================\n",
      "zero_padding2d_17 (ZeroPaddi (None, 70, 70, 3)         0         \n",
      "_________________________________________________________________\n",
      "conv2d_15 (Conv2D)           (None, 64, 64, 32)        4736      \n",
      "_________________________________________________________________\n",
      "batch_normalization_14 (Batc (None, 64, 64, 32)        128       \n",
      "_________________________________________________________________\n",
      "re_lu_14 (ReLU)              (None, 64, 64, 32)        0         \n",
      "_________________________________________________________________\n",
      "max_pooling2d_14 (MaxPooling (None, 32, 32, 32)        0         \n",
      "_________________________________________________________________\n",
      "flatten_14 (Flatten)         (None, 32768)             0         \n",
      "_________________________________________________________________\n",
      "dense_15 (Dense)             (None, 1)                 32769     \n",
      "=================================================================\n",
      "Total params: 37,633\n",
      "Trainable params: 37,569\n",
      "Non-trainable params: 64\n",
      "_________________________________________________________________\n"
     ]
    }
   ],
   "source": [
    "happy_model.summary()"
   ]
  },
  {
   "cell_type": "markdown",
   "metadata": {},
   "source": [
…
     "solution": false,
     "task": false
    }
   },
   "outputs": [
    {
     "name": "stdout",
     "output_type": "stream",
     "text": [
      "Model: \"functional_1\"\n",
      "_________________________________________________________________\n",
      "Layer (type)                 Output Shape              Param #   \n",
      "=================================================================\n",
      "input_5 (InputLayer)         [(None, 64, 64, 3)]       0         \n",
      "_________________________________________________________________\n",
      "conv2d_21 (Conv2D)           (None, 64, 64, 8)         392       \n",
      "_________________________________________________________________\n",
      "re_lu_20 (ReLU)              (None, 64, 64, 8)         0         \n",
      "_________________________________________________________________\n",
      "max_pooling2d_17 (MaxPooling (None, 8, 8, 8)           0         \n",
      "_________________________________________________________________\n",
      "conv2d_22 (Conv2D)           (None, 8, 8, 16)          528       \n",
      "_________________________________________________________________\n",
      "re_lu_21 (ReLU)              (None, 8, 8, 16)          0         \n",
      "_________________________________________________________________\n",
      "max_pooling2d_18 (MaxPooling (None, 2, 2, 16)          0         \n",
      "_________________________________________________________________\n",
      "flatten_16 (Flatten)         (None, 64)                0         \n",
      "_________________________________________________________________\n",
      "dense_16 (Dense)             (None, 6)                 390       \n",
      "=================================================================\n",
      "Total params: 1,310\n",
      "Trainable params: 1,310\n",
      "Non-trainable params: 0\n",
      "_________________________________________________________________\n",
      "\u001b[32mAll tests passed!\u001b[0m\n"
     ]
    }
   ],
   "source": [
    "conv_model = convolutional_model((64, 64, 3))\n",
…
