…
    "This loads the weights of a trained YOLO model. Here's a summary of the layers your model contains:"
   ]
  },
  {
   "cell_type": "code",
   "execution_count": 25,
   "metadata": {},
   "outputs": [
    {
     "name": "stdout",
     "output_type": "stream",
     "text": [
      "Model: \"functional_1\"\n",
      "__________________________________________________________________________________________________\n",
      "Layer (type)                    Output Shape         Param #     Connected to                     \n",
      "==================================================================================================\n",
      "input_1 (InputLayer)            [(None, 608, 608, 3) 0                                            \n",
      "__________________________________________________________________________________________________\n",
      "conv2d (Conv2D)                 (None, 608, 608, 32) 864         input_1[0][0]                    \n",
      "__________________________________________________________________________________________________\n",
      "batch_normalization (BatchNorma (None, 608, 608, 32) 128         conv2d[0][0]                     \n",
      "__________________________________________________________________________________________________\n",
      "leaky_re_lu (LeakyReLU)         (None, 608, 608, 32) 0           batch_normalization[0][0]        \n",
      "__________________________________________________________________________________________________\n",
      "max_pooling2d (MaxPooling2D)    (None, 304, 304, 32) 0           leaky_re_lu[0][0]                \n",
      "__________________________________________________________________________________________________\n",
      "conv2d_1 (Conv2D)               (None, 304, 304, 64) 18432       max_pooling2d[0][0]              \n",
      "__________________________________________________________________________________________________\n",
      "batch_normalization_1 (BatchNor (None, 304, 304, 64) 256         conv2d_1[0][0]                   \n",
      "__________________________________________________________________________________________________\n",
      "leaky_re_lu_1 (LeakyReLU)       (None, 304, 304, 64) 0           batch_normalization_1[0][0]      \n",
      "__________________________________________________________________________________________________\n",
      "max_pooling2d_1 (MaxPooling2D)  (None, 152, 152, 64) 0           leaky_re_lu_1[0][0]              \n",
      "__________________________________________________________________________________________________\n",
      "conv2d_2 (Conv2D)               (None, 152, 152, 128 73728       max_pooling2d_1[0][0]            \n",
      "__________________________________________________________________________________________________\n",
      "batch_normalization_2 (BatchNor (None, 152, 152, 128 512         conv2d_2[0][0]                   \n",
      "__________________________________________________________________________________________________\n",
      "leaky_re_lu_2 (LeakyReLU)       (None, 152, 152, 128 0           batch_normalization_2[0][0]      \n",
      "__________________________________________________________________________________________________\n",
      "conv2d_3 (Conv2D)               (None, 152, 152, 64) 8192        leaky_re_lu_2[0][0]              \n",
      "__________________________________________________________________________________________________\n",
      "batch_normalization_3 (BatchNor (None, 152, 152, 64) 256         conv2d_3[0][0]                   \n",
      "__________________________________________________________________________________________________\n",
      "leaky_re_lu_3 (LeakyReLU)       (None, 152, 152, 64) 0           batch_normalization_3[0][0]      \n",
      "__________________________________________________________________________________________________\n",
      "conv2d_4 (Conv2D)               (None, 152, 152, 128 73728       leaky_re_lu_3[0][0]              \n",
      "__________________________________________________________________________________________________\n",
      "batch_normalization_4 (BatchNor (None, 152, 152, 128 512         conv2d_4[0][0]                   \n",
      "__________________________________________________________________________________________________\n",
      "leaky_re_lu_4 (LeakyReLU)       (None, 152, 152, 128 0           batch_normalization_4[0][0]      \n",
      "__________________________________________________________________________________________________\n",
      "max_pooling2d_2 (MaxPooling2D)  (None, 76, 76, 128)  0           leaky_re_lu_4[0][0]              \n",
      "__________________________________________________________________________________________________\n",
      "conv2d_5 (Conv2D)               (None, 76, 76, 256)  294912      max_pooling2d_2[0][0]            \n",
      "__________________________________________________________________________________________________\n",
      "batch_normalization_5 (BatchNor (None, 76, 76, 256)  1024        conv2d_5[0][0]                   \n",
      "__________________________________________________________________________________________________\n",
      "leaky_re_lu_5 (LeakyReLU)       (None, 76, 76, 256)  0           batch_normalization_5[0][0]      \n",
      "__________________________________________________________________________________________________\n",
      "conv2d_6 (Conv2D)               (None, 76, 76, 128)  32768       leaky_re_lu_5[0][0]              \n",
      "__________________________________________________________________________________________________\n",
      "batch_normalization_6 (BatchNor (None, 76, 76, 128)  512         conv2d_6[0][0]                   \n",
      "__________________________________________________________________________________________________\n",
      "leaky_re_lu_6 (LeakyReLU)       (None, 76, 76, 128)  0           batch_normalization_6[0][0]      \n",
      "__________________________________________________________________________________________________\n",
      "conv2d_7 (Conv2D)               (None, 76, 76, 256)  294912      leaky_re_lu_6[0][0]              \n",
      "__________________________________________________________________________________________________\n",
      "batch_normalization_7 (BatchNor (None, 76, 76, 256)  1024        conv2d_7[0][0]                   \n",
      "__________________________________________________________________________________________________\n",
      "leaky_re_lu_7 (LeakyReLU)       (None, 76, 76, 256)  0           batch_normalization_7[0][0]      \n",
      "__________________________________________________________________________________________________\n",
      "max_pooling2d_3 (MaxPooling2D)  (None, 38, 38, 256)  0           leaky_re_lu_7[0][0]              \n",
      "__________________________________________________________________________________________________\n",
      "conv2d_8 (Conv2D)               (None, 38, 38, 512)  1179648     max_pooling2d_3[0][0]            \n",
      "__________________________________________________________________________________________________\n",
      "batch_normalization_8 (BatchNor (None, 38, 38, 512)  2048        conv2d_8[0][0]                   \n",
      "__________________________________________________________________________________________________\n",
      "leaky_re_lu_8 (LeakyReLU)       (None, 38, 38, 512)  0           batch_normalization_8[0][0]      \n",
      "__________________________________________________________________________________________________\n",
      "conv2d_9 (Conv2D)               (None, 38, 38, 256)  131072      leaky_re_lu_8[0][0]              \n",
      "__________________________________________________________________________________________________\n",
      "batch_normalization_9 (BatchNor (None, 38, 38, 256)  1024        conv2d_9[0][0]                   \n",
      "__________________________________________________________________________________________________\n",
      "leaky_re_lu_9 (LeakyReLU)       (None, 38, 38, 256)  0           batch_normalization_9[0][0]      \n",
      "__________________________________________________________________________________________________\n",
      "conv2d_10 (Conv2D)              (None, 38, 38, 512)  1179648     leaky_re_lu_9[0][0]              \n",
      "__________________________________________________________________________________________________\n",
      "batch_normalization_10 (BatchNo (None, 38, 38, 512)  2048        conv2d_10[0][0]                  \n",
      "__________________________________________________________________________________________________\n",
      "leaky_re_lu_10 (LeakyReLU)      (None, 38, 38, 512)  0           batch_normalization_10[0][0]     \n",
      "__________________________________________________________________________________________________\n",
      "conv2d_11 (Conv2D)              (None, 38, 38, 256)  131072      leaky_re_lu_10[0][0]             \n",
      "__________________________________________________________________________________________________\n",
      "batch_normalization_11 (BatchNo (None, 38, 38, 256)  1024        conv2d_11[0][0]                  \n",
      "__________________________________________________________________________________________________\n",
      "leaky_re_lu_11 (LeakyReLU)      (None, 38, 38, 256)  0           batch_normalization_11[0][0]     \n",
      "__________________________________________________________________________________________________\n",
      "conv2d_12 (Conv2D)              (None, 38, 38, 512)  1179648     leaky_re_lu_11[0][0]             \n",
      "__________________________________________________________________________________________________\n",
      "batch_normalization_12 (BatchNo (None, 38, 38, 512)  2048        conv2d_12[0][0]                  \n",
      "__________________________________________________________________________________________________\n",
      "leaky_re_lu_12 (LeakyReLU)      (None, 38, 38, 512)  0           batch_normalization_12[0][0]     \n",
      "__________________________________________________________________________________________________\n",
      "max_pooling2d_4 (MaxPooling2D)  (None, 19, 19, 512)  0           leaky_re_lu_12[0][0]             \n",
      "__________________________________________________________________________________________________\n",
      "conv2d_13 (Conv2D)              (None, 19, 19, 1024) 4718592     max_pooling2d_4[0][0]            \n",
      "__________________________________________________________________________________________________\n",
      "batch_normalization_13 (BatchNo (None, 19, 19, 1024) 4096        conv2d_13[0][0]                  \n",
      "__________________________________________________________________________________________________\n",
      "leaky_re_lu_13 (LeakyReLU)      (None, 19, 19, 1024) 0           batch_normalization_13[0][0]     \n",
      "__________________________________________________________________________________________________\n",
      "conv2d_14 (Conv2D)              (None, 19, 19, 512)  524288      leaky_re_lu_13[0][0]             \n",
      "__________________________________________________________________________________________________\n",
      "batch_normalization_14 (BatchNo (None, 19, 19, 512)  2048        conv2d_14[0][0]                  \n",
      "__________________________________________________________________________________________________\n",
      "leaky_re_lu_14 (LeakyReLU)      (None, 19, 19, 512)  0           batch_normalization_14[0][0]     \n",
      "__________________________________________________________________________________________________\n",
      "conv2d_15 (Conv2D)              (None, 19, 19, 1024) 4718592     leaky_re_lu_14[0][0]             \n",
      "__________________________________________________________________________________________________\n",
      "batch_normalization_15 (BatchNo (None, 19, 19, 1024) 4096        conv2d_15[0][0]                  \n",
      "__________________________________________________________________________________________________\n",
      "leaky_re_lu_15 (LeakyReLU)      (None, 19, 19, 1024) 0           batch_normalization_15[0][0]     \n",
      "__________________________________________________________________________________________________\n",
      "conv2d_16 (Conv2D)              (None, 19, 19, 512)  524288      leaky_re_lu_15[0][0]             \n",
      "__________________________________________________________________________________________________\n",
      "batch_normalization_16 (BatchNo (None, 19, 19, 512)  2048        conv2d_16[0][0]                  \n",
      "__________________________________________________________________________________________________\n",
      "leaky_re_lu_16 (LeakyReLU)      (None, 19, 19, 512)  0           batch_normalization_16[0][0]     \n",
      "__________________________________________________________________________________________________\n",
      "conv2d_17 (Conv2D)              (None, 19, 19, 1024) 4718592     leaky_re_lu_16[0][0]             \n",
      "__________________________________________________________________________________________________\n",
      "batch_normalization_17 (BatchNo (None, 19, 19, 1024) 4096        conv2d_17[0][0]                  \n",
      "__________________________________________________________________________________________________\n",
      "leaky_re_lu_17 (LeakyReLU)      (None, 19, 19, 1024) 0           batch_normalization_17[0][0]     \n",
      "__________________________________________________________________________________________________\n",
      "conv2d_18 (Conv2D)              (None, 19, 19, 1024) 9437184     leaky_re_lu_17[0][0]             \n",
      "__________________________________________________________________________________________________\n",
      "batch_normalization_18 (BatchNo (None, 19, 19, 1024) 4096        conv2d_18[0][0]                  \n",
      "__________________________________________________________________________________________________\n",
      "conv2d_20 (Conv2D)              (None, 38, 38, 64)   32768       leaky_re_lu_12[0][0]             \n",
      "__________________________________________________________________________________________________\n",
      "leaky_re_lu_18 (LeakyReLU)      (None, 19, 19, 1024) 0           batch_normalization_18[0][0]     \n",
      "__________________________________________________________________________________________________\n",
      "batch_normalization_20 (BatchNo (None, 38, 38, 64)   256         conv2d_20[0][0]                  \n",
      "__________________________________________________________________________________________________\n",
      "conv2d_19 (Conv2D)              (None, 19, 19, 1024) 9437184     leaky_re_lu_18[0][0]             \n",
      "__________________________________________________________________________________________________\n",
      "leaky_re_lu_20 (LeakyReLU)      (None, 38, 38, 64)   0           batch_normalization_20[0][0]     \n",
      "__________________________________________________________________________________________________\n",
      "batch_normalization_19 (BatchNo (None, 19, 19, 1024) 4096        conv2d_19[0][0]                  \n",
      "__________________________________________________________________________________________________\n",
      "space_to_depth_x2 (Lambda)      (None, 19, 19, 256)  0           leaky_re_lu_20[0][0]             \n",
      "__________________________________________________________________________________________________\n",
      "leaky_re_lu_19 (LeakyReLU)      (None, 19, 19, 1024) 0           batch_normalization_19[0][0]     \n",
      "__________________________________________________________________________________________________\n",
      "concatenate (Concatenate)       (None, 19, 19, 1280) 0           space_to_depth_x2[0][0]          \n",
      "                                                                 leaky_re_lu_19[0][0]             \n",
      "__________________________________________________________________________________________________\n",
      "conv2d_21 (Conv2D)              (None, 19, 19, 1024) 11796480    concatenate[0][0]                \n",
      "__________________________________________________________________________________________________\n",
      "batch_normalization_21 (BatchNo (None, 19, 19, 1024) 4096        conv2d_21[0][0]                  \n",
      "__________________________________________________________________________________________________\n",
      "leaky_re_lu_21 (LeakyReLU)      (None, 19, 19, 1024) 0           batch_normalization_21[0][0]     \n",
      "__________________________________________________________________________________________________\n",
      "conv2d_22 (Conv2D)              (None, 19, 19, 425)  435625      leaky_re_lu_21[0][0]             \n",
      "==================================================================================================\n",
      "Total params: 50,983,561\n",
      "Trainable params: 50,962,889\n",
      "Non-trainable params: 20,672\n",
      "__________________________________________________________________________________________________\n"
     ]
    }
   ],
   "source": [
…
